cqf_raj-main/Raj/models/CallOption1D-FC-Sine.pth (torch, 805539 bytes, 9 tensors)

0.weight f4 [256, 2]
000000 ba fb 8b be f9 e3 b5 3b 9f 19 97 3d e5 1d 8b be
       -0.2734049 0.005550858 0.07377934 -0.27171245
000010 64 75 e8 bc 59 10 db 3d 44 ac 6b 3e 83 14 93 ba
       -0.028376289 0.106964774 0.23014933 -0.0011221323
000020 76 62 c8 bc 08 a6 4b be 3c 0e 4a 3d 27 44 42 3e
       -0.024461012 -0.19887555 0.04932998 0.1897131
000030 66 1f 1a bc ae 1e 7d be 3c 19 29 bc 91 3c cf bd
       -0.0094069 -0.24718735 -0.010320958 -0.10118974
000040 12 77 9d 3c 3a d3 9a 3b ae 5f 71 3d 4e aa ee 3d
       0.019221816 0.004724887 0.058929138 0.11653577
000050 34 3f bb 3d 69 c9 2c bd d1 34 52 bd 38 08 db 3a
       0.091429144 -0.042184267 -0.0513199 0.0016710823
000060 9c 47 01 be 89 66 e1 bd 0f f9 24 3d 40 b5 43 3e
       -0.12624973 -0.11005885 0.040276583 0.1911211
000070 5b eb 8e 3d 14 77 1e 3a 64 b0 fe 3b 3d ac b1 bd
       0.06978484 0.00060449657 0.0077724922 -0.0867543
000080 f7 03 8c 3e a2 67 b9 bc b8 b1 4a bd d8 ce 8e 3e
       0.27346775 -0.022632424 -0.049485892 0.27892184
000090 9c 76 e6 3c 43 63 53 be 39 a3 49 bd a0 89 3b 3e
       0.02813273 -0.20643334 -0.049227927 0.18314219
0000a0 dc 50 19 3e 65 69 44 3e d1 d7 75 3d 1e fa 4f 3e
       0.14972252 0.1918083 0.06002027 0.20310256
0000b0 8d f2 ec 3c 75 95 6b bb dc 98 cf bc 8e 66 48 3e
       0.028924251 -0.0035947238 -0.025341444 0.19570372
0000c0 1e 98 22 bc 6e 38 90 3d ef 70 5c 3d a2 90 01 be
       -0.009923963 0.07042013 0.05381864 -0.1265283
0000d0 45 0b ee bd 91 cb 07 3e e0 3d 6c 3e 42 cf c6 ba
       -0.11623243 0.13261248 0.23070478 -0.0015167969
0000e0 8f 06 18 be d1 3e 2a 3e 30 75 b4 be ef 6d 47 bc
       -0.14846252 0.16625525 -0.35245657 -0.012172206
0000f0 ce 9f 17 be 90 30 15 3c b7 9c 36 be 7a f7 19 be
       -0.14807054 0.0091058165 -0.1783322 -0.15035811
000100 a9 4e 72 bc 4f 76 8f 3b e7 68 dd 3d 16 6c 8f 3a
       -0.014789262 0.004378117 0.10811024 0.0010942246
000110 81 d8 80 bb ed ec 7e bb 5e b8 51 3c 10 83 1e 3e
       -0.0039320593 -0.0038898543 0.012800304 0.15479684
000120 48 fc d2 3d 60 6b 87 bd 17 d5 23 3e c8 e6 07 3e
       0.10302025 -0.06612277 0.15999256 0.1327163
000130 d7 86 2c 3e 46 e4 5b 3d 5c 59 02 3d 63 f6 74 be
       0.16848312 0.053684495 0.0318235 -0.23922114
000140 cb be 94 bd 5e 60 11 be ec 33 ca 3d e4 7e 11 3a
       -0.07262953 -0.14196917 0.098731846 0.0005550219
000150 cf 36 86 be 59 fa c0 3c 34 63 e6 bc bf 6d 6f be
       -0.2621369 0.023556875 -0.028123476 -0.23381709
000160 e6 97 20 bd ff b4 ca 3d b5 22 dc bb 0a 58 c7 bd
       -0.03920736 0.098978035 -0.0067180046 -0.09733589
000170 95 53 20 be 62 9e f2 bd 75 46 80 3d db 8f 8e 3e
       -0.15656884 -0.118466154 0.062634386 0.27844128
000180 80 f2 92 bb ec 38 86 be df 5a 14 bd 08 92 d5 3a
       -0.0044844747 -0.26215303 -0.036219474 0.0016294131
000190 60 b4 aa 3d c2 8c 31 3e 17 4a c7 bd ec a5 87 3e
       0.08335185 0.17338851 -0.097309284 0.26493776
0001a0 03 59 bf bd 5f 68 91 3d 05 ee cc bd e6 8f 39 bc
       -0.093431495 0.07099985 -0.10006336 -0.011325812
0001b0 a2 8c 45 be 8e c4 3d be 8f ea 80 3c 56 f0 49 3e
       -0.19291928 -0.18532011 0.015736846 0.19720587
0001c0 a4 43 20 be 9d b6 a9 3c 51 e0 de bd 02 3c 6b 3b
       -0.15650803 0.02071696 -0.10882629 0.0035893922
0001d0 6e 9e ac bd 43 c5 90 3d 54 6f 12 be 1a 3e 50 be
       -0.084286556 0.07068875 -0.14300281 -0.2033619
0001e0 0d 02 29 bd 77 56 3f be 14 d0 62 bd 86 4f 4c be
       -0.04126172 -0.18685327 -0.05537422 -0.19952211
0001f0 cd 83 fa bc 3e 1e 04 3e ac 87 af 3d a5 9e 97 3d
       -0.030580426 0.12902161 0.08570799 0.07403306
000200 1d 3c ac 3c 2c 14 0f be 47 a7 aa 3d cb 8f 62 3e
       0.021024758 -0.13972539 0.08332687 0.22125165
000210 a9 1e cc bd bd de a7 3d 50 8a 87 3e f7 d2 fa 3b
       -0.099667855 0.08196781 0.26472712 0.0076545435
000220 e3 b9 35 be b8 a2 26 be 47 78 65 be f2 ea 21 be
       -0.17746691 -0.1627301 -0.22409163 -0.15812281
000230 02 1c f3 bd a6 27 69 3e 55 03 65 3d 9e 74 86 be
       -0.118705764 0.22769031 0.05591138 -0.26260847
000240 be 6f 51 be 04 c5 02 bd 85 76 b8 3d 55 2c 08 3e
       -0.20452783 -0.03192617 0.09006981 0.13298161
000250 79 15 f2 bd 5f a9 51 be cf 6f fa bc 8a 36 77 3e
       -0.11820502 -0.20474766 -0.030570893 0.24141899
000260 cc dc 3c 3e 81 00 e5 bb a7 23 8a 3b ae 9d 1f 3e
       0.18443602 -0.0069885855 0.004215676 0.15587494
000270 52 6d d6 3d 6b e9 68 3e 90 5f f6 3d c0 f6 7c 3d
       0.1047007 0.22745292 0.12029946 0.061758757
000280 41 bd f7 bd 5d 9c ee 3b 2e ef 29 be c6 08 03 3e
       -0.12096644 0.0072818235 -0.16595146 0.12796316
000290 86 f2 af b9 e0 d9 c1 bd 57 ec b3 bd b4 34 56 bb
       -0.00033559295 -0.094653845 -0.087853126 -0.0032685222
0002a0 c6 2f 9a 3c 0f ea 0f 3e 8d f1 9f 3d 85 58 06 3e
       0.018821608 0.1405413 0.07809744 0.13119705
0002b0 2d 39 48 bd 6f d9 4e be 53 66 56 be f8 45 03 be
       -0.048882652 -0.20200132 -0.20937471 -0.1281966
0002c0 0b 11 af 3b 3e 70 9f 3b 8a 35 32 3e 94 86 2d 3e
       0.005342608 0.0048656752 0.17403236 0.16945869
0002d0 11 aa 80 bd db 37 82 3e 3e ec c7 3d af 34 f1 3d
       -0.062824376 0.2543324 0.097618565 0.11777627
0002e0 26 22 3d 3d b7 ea 76 3e 49 0b 99 3d 72 e0 08 be
       0.046175145 0.24112974 0.074728556 -0.13366869
0002f0 f0 0c 10 3e 15 11 5d 3e 35 fe 11 be 97 c6 9c ba
       0.14067435 0.21588548 -0.14257129 -0.001196104
000300 67 83 c0 bd 16 19 5a be da 21 b7 3c 6f 23 8f be
       -0.09400063 -0.21298632 0.022355009 -0.2795672
000310 a8 8e 05 be ad 75 84 be 8e f4 5a 3e b7 d3 2b 3c
       -0.130427 -0.2587103 0.21382353 0.0104874885
000320 70 e4 9c bd 23 b4 40 be b3 6e 3d be fc 31 64 bd
       -0.076607585 -0.18818717 -0.1849926 -0.05571173
000330 b5 70 40 bd 16 29 0e be b6 f4 aa be 33 95 3f bd
       -0.046982486 -0.1388286 -0.33389825 -0.046773147
000340 e8 fb 8a 3d 3d 5a 6d 3e 85 9e cf 3d 24 7b 60 3e
       0.067863286 0.23178954 0.10137657 0.21921974
000350 a2 da 98 bc d6 07 41 bb 0d 82 a0 3c 93 11 55 be
       -0.01865894 -0.0029454133 0.019593263 -0.20807485
000360 a9 70 8e be e6 50 01 bd 88 e4 c2 3d 3c b9 2e 3b
       -0.27820328 -0.03157129 0.09516245 0.0026660701
000370 4a fc 75 bd 3e fe 8f bb d9 77 6e 3d 46 0e 30 3e
       -0.060055055 -0.0043943217 0.058219764 0.17192945
000380 31 aa 9d 3e 26 b7 be 3b f2 82 98 bc 64 b0 16 3e
       0.30793908 0.005820173 -0.018617127 0.14715725
000390 55 f8 32 3e 25 2a 2b 3e 37 48 78 be 28 bc 08 3e
       0.17477544 0.16715296 -0.24246298 0.13353026
0003a0 d3 72 35 be b8 ec 40 3e da ae 8a 3c 5a 79 27 3e
       -0.17719583 0.18840301 0.016929079 0.16354886
0003b0 7b e9 f7 bd a6 f9 59 be 80 e8 cb 3d 40 f8 17 3e
       -0.1210508 -0.2128664 0.09956455 0.14840794
0003c0 d5 7c 36 3d 5d 17 19 be e0 24 8a be dc 52 87 bd
       0.044552643 -0.14950319 -0.26981258 -0.06607601
0003d0 60 0b 17 3d 8d 2b f5 3d b6 dd 90 3e e8 a2 00 bd
       0.036876082 0.11971197 0.28294152 -0.03140536
0003e0 0d d6 8d 3d fb e9 d1 bd 54 87 a4 3d d7 3c ad bd
       0.069255926 -0.10249706 0.08033624 -0.0845887
0003f0 63 15 e3 3d 1d 9e 74 3e e8 5c 97 3d f4 a7 9a 3d
       0.110880636 0.2388844 0.07390767 0.07551566

0.bias f4 [256]
000000 3e 1e ae 3e bd 0e 09 3f 30 63 0f be ce 01 72 be
       0.34007448 0.53538114 -0.14002681 -0.23633501
000010 74 67 dd 3e 8d 54 dd be 91 7a 22 3f 6c af ff 3d
       0.4324299 -0.4322857 0.6346827 0.12484631
000020 31 79 52 bc d1 2b 7c be 6e db 21 bd fa e6 42 3d
       -0.012846277 -0.2462609 -0.039515905 0.047583558
000030 c6 4e 92 3e 62 ae 5f be bb 2f 91 bd 72 33 f9 3d
       0.28575724 -0.21843866 -0.07089182 0.121680155
000040 db 00 ff be ec a2 0b bf 95 8c 0d 3f bd 0b bb be
       -0.4980534 -0.54545474 0.55292636 -0.36532393
000050 69 9d ea be 74 80 1d bf 3f da 04 bd 4f e1 05 bf
       -0.4582322 -0.6152413 -0.0324347 -0.5229692
000060 e5 e1 f2 3d 62 cb 87 be 49 7d 0b 3f 42 7f 6f be
       0.11859492 -0.26522356 0.54488045 -0.23388389
000070 e8 ff 85 bd a6 b1 c9 3e 53 4d a3 3e c2 c6 cd 3e
       -0.06542951 0.39393348 0.3189493 0.40190703
000080 6b 92 9b 3c d0 55 d3 bd de 72 3f bb b8 68 4b bd
       0.018990716 -0.10319102 -0.0029212753 -0.049660414
000090 b6 a7 ce bd 99 d1 c1 be 89 80 c9 be e6 24 96 3e
       -0.10090582 -0.37855223 -0.39355877 0.29325026
0000a0 78 70 32 3e 8c 96 c8 bd 9e cd 8f 3e 56 cd a2 3e
       0.17425716 -0.097943395 0.2808656 0.31797284
0000b0 6d 25 d2 bd c6 29 b0 be cf 32 a3 3e 02 d5 03 bf
       -0.10261045 -0.3440687 0.318747 -0.514969
0000c0 d9 7a aa 3e 3c 18 33 3d e3 77 8d be 9b 41 cf be
       0.3329685 0.043724284 -0.2763053 -0.4047974
0000d0 96 d7 49 bc c4 d6 e4 3d d0 6b ed 3e be 63 7f be
       -0.012319466 0.11173776 0.46371317 -0.24940392
0000e0 b7 6a 37 3e dd d8 e7 3d b3 d0 4a 3e 22 02 10 3f
       0.17911802 0.1132066 0.19806175 0.56253254
0000f0 c2 e8 d3 3e 89 96 f0 3e 6a 2e 3e be 3c 13 4a be
       0.41388518 0.4698985 -0.18572393 -0.197339
000100 a2 08 48 3e 54 64 b2 be 85 9a 2a bd 61 e9 89 be
       0.19534543 -0.3484217 -0.041651268 -0.26935866
000110 36 81 28 3f 6e 36 0f 3f bc fe 49 be fc 61 ef 3e
       0.6582216 0.5594243 -0.1972608 0.46754444
000120 06 0d d4 3e 59 78 a6 be 54 59 ef 3e 3f 38 02 bf
       0.41416186 -0.32513693 0.4674784 -0.50867075
000130 68 1f 79 be 00 ad 80 3d 93 1d ad be 3b 09 61 be
       -0.24328387 0.06282997 -0.33811626 -0.21976177
000140 49 1c fd 3d ac ba 65 3d ac a6 d0 bc 90 b9 b0 3d
       0.123589106 0.056086227 -0.0254701 0.08629143
000150 e9 9b 0e bf 4c e5 b6 be 8a 0e eb 3e fd d1 e8 3e
       -0.5570665 -0.35721815 0.4590953 0.45472708
000160 62 f2 9e ba 51 78 15 bf 2f d0 f7 be ef 32 83 be
       -0.0012126679 -0.58386713 -0.4840102 -0.25624797
000170 85 20 93 be 95 54 12 3e af 77 1b bf cd 2c 0e 3e
       -0.28735748 0.14290078 -0.607295 0.13884278
000180 39 8f 91 3e ab d2 18 3f be d0 26 3f 47 0a ab be
       0.28429583 0.59696454 0.65162265 -0.33406278
000190 f6 fc 12 3f 5b e3 f9 3e e8 6c 05 3e 80 62 cb 3e
       0.5741724 0.4880627 0.13029826 0.39723587
0001a0 f9 db df be ef 14 1b bf ab 3a 97 3c e1 71 c4 3e
       -0.43722513 -0.6057882 0.018460592 0.38368133
0001b0 a9 21 bb 3e fe b9 b6 bd 77 ad 62 3d 32 ba 48 be
       0.36549118 -0.08922194 0.05534121 -0.19602278
0001c0 3f ee a2 be e4 f2 f2 bd 8e e0 f6 be 54 54 0a 3f
       -0.31822392 -0.11862734 -0.48218197 0.54034925
0001d0 18 58 30 3d 37 f0 b1 be 8b b1 16 3f 62 82 d1 be
       0.043052763 -0.34753582 0.5886466 -0.40919787
0001e0 1f 1f 62 3e e3 e1 b6 3e 9f 2d 6f be 72 47 be be
       0.22082184 0.35719213 -0.23357247 -0.37163883
0001f0 65 f9 89 bd f6 09 c1 be c3 32 a2 be 53 bc 1e be
       -0.06737021 -0.37702912 -0.31679353 -0.15501527
000200 1a 49 08 3e da dd c3 bd 5d 20 88 be f9 ab 7e 3e
       0.13309136 -0.09563799 -0.2658719 0.2487029
000210 04 24 00 bf ea fe 64 be f4 57 e6 be be a4 b9 3e
       -0.50054955 -0.22362867 -0.44988978 0.362585
000220 29 b4 5a 3d 61 da 58 3e 5c 11 85 be f8 4c 0a bf
       0.05339447 0.21177055 -0.25989807 -0.54023695
000230 32 04 05 bf e2 e9 22 3e a9 d2 a3 be 94 e2 c1 3d
       -0.51959527 0.15909532 -0.31996658 0.094670445
000240 4a 58 30 bb bb be 22 3f c7 47 40 3e f6 82 d5 3e
       -0.0026908093 0.6357228 0.18777381 0.41701478
000250 30 c5 15 3f ae e0 fc be ae ec 07 bf e7 d4 9f be
       0.5850401 -0.49390167 -0.5309552 -0.3121712
000260 12 67 88 be a8 43 05 3f 18 56 b3 be 17 68 92 3e
       -0.26641136 0.5205636 -0.35026622 0.2859504
000270 ff 87 a1 3e d3 e2 b4 be 61 1f f5 be 78 74 2b be
       0.3154907 -0.35329303 -0.47875503 -0.16743648
000280 90 3c 4f bd 1e 56 79 3e f2 d1 e1 be 73 97 ac bd
       -0.050594866 0.24349257 -0.44105488 -0.08427324
000290 2f 8b 0a bf 06 5d 39 be 91 40 9a be e6 20 be 3e
       -0.5411863 -0.18101892 -0.30127385 0.37134475
0002a0 23 39 19 3f d1 21 9b be 91 5e 5f 3e 3b a0 0b bf
       0.5985281 -0.30299237 0.21813418 -0.5454137
0002b0 94 3d 89 3e 76 3b 87 be b6 b4 22 bf bf fa 8b be
       0.26804793 -0.26412553 -0.63556993 -0.27339742
0002c0 fd 98 60 3e 57 ad 4e 3e 06 24 e4 be 88 e0 91 bd
       0.2193336 0.20183311 -0.44558734 -0.07122904
0002d0 16 78 af be d8 b0 bf be 52 b6 20 3e b5 08 7a 3e
       -0.34271306 -0.3743961 0.1569455 0.24417384
0002e0 fb 6c 0d 3e 26 1e aa be d7 3f 02 3f d0 91 a0 be
       0.13811104 -0.33226126 0.5087866 -0.31361246
0002f0 bc ce e1 bd e7 a4 22 3f e6 fd 83 be df aa 8f be
       -0.110257596 0.6353287 -0.25779647 -0.28060052
000300 0a a0 97 bd 61 c0 99 3e 22 f2 f5 be 73 95 bf 3e
       -0.07403572 0.30029586 -0.48036295 0.37418708
000310 d4 09 11 be d0 a5 c2 be b5 0e 6e be 82 20 03 be
       -0.14163905 -0.3801713 -0.23247798 -0.1280537
000320 a8 95 15 be ae 79 03 3f 57 0d ea bb 52 f6 9c 3e
       -0.1460787 0.51357543 -0.0071427035 0.30656677
000330 3f 2f b6 3e 14 f6 b2 3e 7e 66 22 3e d2 dc 41 3e
       0.3558292 0.34953368 0.1585941 0.18931893
000340 ab 7a 9e be 8f 6a f5 be 45 bf ea be f0 87 5f 3e
       -0.30952963 -0.4793286 -0.45849052 0.218292
000350 f2 e9 9e 3e ba 07 01 bd da 13 f6 3e cb ed d5 3c
       0.3103786 -0.03150151 0.4806202 0.026114365
000360 b2 51 d2 3b a7 d4 29 be dd 7c a5 3e 3a c9 9f 3c
       0.0064184302 -0.16585027 0.32321826 0.019505132
000370 b8 b6 1a 3f ef 5b 89 3e a0 29 98 be be 4b 04 3f
       0.60435057 0.26827952 -0.29719257 0.51678073
000380 c9 b6 f9 bc 4e 3f 1e be ad f7 21 bf 23 ce db bd
       -0.030482667 -0.15453836 -0.6326855 -0.10732677
000390 cb 1e 96 3c 75 4a fc 3d cf 38 7e 3e b0 86 57 be
       0.01832523 0.12318889 0.24826358 -0.21047473
0003a0 db 06 2c 3d f0 a2 cb be 93 b2 8d be 00 7a 05 be
       0.041998725 -0.3977275 -0.27675304 -0.1303482
0003b0 64 ad 43 3e cf 73 d3 3d b2 2c a8 be 59 d9 ce 3e
       0.19109112 0.10324823 -0.328466 0.40400198
0003c0 43 e3 a6 3e 5e 9d f4 3d e8 83 51 bd 0d c1 04 3e
       0.32595262 0.11944078 -0.051151186 0.12964268
0003d0 dc 92 0d bf 50 80 f0 3e 89 45 23 bf 18 39 ea 3e
       -0.55302215 0.46972895 -0.6377798 0.45746684
0003e0 4d e0 93 be 34 b3 fc bd 8a 9b 1d 3f 48 b5 c1 3a
       -0.28882065 -0.12338868 0.6156546 0.0014778757
0003f0 88 97 86 be 88 bb 8f 3e f0 70 76 3e a9 db 16 bf
       -0.26287484 0.28072762 0.2406652 -0.58928925

2.weight f4 [256, 256]
000000 a5 8d c5 3d 6a 42 28 3d ae 8e e5 3c d4 5f b8 bd
       0.09646157 0.041078962 0.028022137 -0.09002653
000010 82 42 b3 3d f8 4f 56 3d bd 85 a2 bd 3a fb 03 bd
       0.0875292 0.052322358 -0.07935665 -0.03222201
000020 ef a1 21 bd 8b 8a e9 bd 29 6d bf bd 52 8f 7c bd
       -0.039461073 -0.11403378 -0.093469925 -0.06166012
000030 1a 24 98 bc 18 c4 e8 bd 18 01 89 bd ce cf 8d bd
       -0.018571902 -0.11365527 -0.06689662 -0.06924401
000040 e2 4f 1c bd c6 55 a5 3d c2 3e 88 bd b8 4f 0a 3d
       -0.03816212 0.080730006 -0.06652595 0.033767432
000050 64 1e 62 3d f5 98 2e bd 63 32 cc 3d b7 a8 3e bb
       0.055204764 -0.04262634 0.09970548 -0.002909226
000060 12 f6 88 3b 67 63 6d bd c4 d7 a6 3d d2 71 3e bd
       0.0041797245 -0.057956126 0.08146623 -0.046495266
000070 53 c0 a7 bd 16 78 76 3d 53 ca 88 bd 09 18 93 bd
       -0.0819098 0.060173117 -0.06679215 -0.07182319
000080 3f 4a 22 bd 59 e4 04 3d 26 72 15 bd a9 54 09 bd
       -0.039621588 0.03244433 -0.036485814 -0.033528004
000090 6f 61 97 3b e8 5e 04 bd fa 24 72 3d 97 76 32 bd
       0.0046197693 -0.032317072 0.059117295 -0.043570127
0000a0 2c 9c 1b bc 00 3e 3e bd 8c 83 54 3d 64 9e 68 bd
       -0.0094976835 -0.046445847 0.051883265 -0.056791678
0000b0 14 b7 99 bd b3 7f 90 bd d3 6d 20 bd 18 ba c9 bd
       -0.075056225 -0.07055607 -0.039167237 -0.09849948
0000c0 e8 c8 d4 bc 3a de a7 3d 44 07 3c bd 44 10 a0 bd
       -0.025974706 0.08196683 -0.045905367 -0.078156024
0000d0 72 c9 9c bd 98 03 b8 bc b6 12 44 bc ba ff 80 bc
       -0.0765561 -0.022462651 -0.011967352 -0.01574694
0000e0 12 7b ad 3d 21 29 c2 3d 56 6c 32 bd 34 9b b8 bd
       0.084707394 0.09480501 -0.04356035 -0.09013978
0000f0 dd d6 e5 bc f0 28 14 3d 87 6c b0 3d f9 f6 e3 bc
       -0.028056556 0.036171854 0.0861445 -0.027827727
000100 32 00 a1 3c f4 96 bb 3d 23 5f 5c bd a6 a2 40 bd
       0.019653413 0.091596514 -0.053801667 -0.047030114
000110 6f b7 aa bd 1e 85 d4 bb ba 83 b6 3c c7 c0 6c 3d
       -0.083357684 -0.0064855954 0.022279609 0.057801034
000120 52 61 bc 3d 93 c8 31 3d dd c0 34 bd 49 d2 88 3d
       0.0919825 0.043404173 -0.04412924 0.06680734
000130 36 2d a5 3d e6 96 2b bc 8c 28 2d 3d e5 17 9b 3d
       0.08065264 -0.010472989 0.042274997 0.07572917
000140 8b 74 fb 3d 64 c7 7f 3d 1e 22 17 3d 0a 82 3f 3d
       0.12278088 0.062446013 0.03689777 0.046754874
000150 24 0c 31 bd fe 70 05 3d 05 b3 d7 3c d7 5f b4 bd
       -0.04322447 0.03257846 0.02633048 -0.088073425
000160 19 a8 c6 bd 3b 98 ef bd ab 0e 82 3d f3 2b ab bc
       -0.09700031 -0.116989575 0.06350454 -0.02089498
000170 d5 5c 12 bb 71 92 c5 3d d3 c9 60 bd 2c 2a 5d 3d
       -0.0022333164 0.09647072 -0.054879975 0.053995296
000180 5d 70 09 3c a9 46 7b 3d cb 1b 29 bd f3 3b 67 bd
       0.008388606 0.061346684 -0.04128627 -0.056453656
000190 b0 d5 bc bd d4 39 9a 3d 84 8f ba 3c 6c 2e 20 bd
       -0.09220445 0.07530561 0.022773512 -0.03910677
0001a0 ae 0d a3 bd d9 01 4b bd 22 35 77 bc 9f ca a3 bd
       -0.079615936 -0.04956231 -0.015088351 -0.07997631
0001b0 6b 6c 9f bd 9c c1 05 bd 1d 36 12 3d 58 d3 d7 3c
       -0.07784351 -0.032655343 0.035696138 0.026345894
0001c0 d7 60 21 3d ed ff a0 3d 5f 93 b0 3c 85 91 96 3d
       0.039398994 0.07861314 0.021554647 0.073519744
0001d0 dc 9b 9c 3d 21 85 83 3d b0 ec 04 bc e0 93 1b bd
       0.07646915 0.06421877 -0.008113071 -0.03798282
0001e0 42 09 c8 3d 9f 5e 78 3d 46 87 5e bc d5 b2 e4 3c
       0.09767391 0.060637113 -0.013582056 0.027917305
0001f0 58 87 46 bd 37 20 0e 3d bd 03 57 bd 8b 58 4c bd
       -0.048468918 0.03469869 -0.0524938 -0.04988913
000200 51 3e bb 3d ee 30 12 bd 15 82 8c 3d 16 5a 4c bd
       0.09142745 -0.035691194 0.06860749 -0.0498906
000210 e1 c8 0c bd cd 67 4d bd 1a c6 42 bd 22 ad 44 bd
       -0.03437126 -0.05014782 -0.047552206 -0.048016675
000220 a9 ff ff bc 1c d1 aa 3d d5 d0 38 bd ab 63 45 bd
       -0.031249838 0.08340666 -0.045121033 -0.048190754
000230 6c 61 d6 bd 89 81 a4 3b d4 5e a3 ba 20 dd d1 bb
       -0.104678005 0.0050203246 -0.0012464174 -0.006404534
000240 15 85 47 3d 88 7b 83 bd 40 41 8f bc db 1e e0 3c
       0.0487109 -0.06420046 -0.017487168 0.027358463
000250 b5 34 20 3d 0e 04 0e bd 84 65 52 3d 85 73 93 bc
       0.039112765 -0.034671836 0.051366344 -0.01799942
000260 87 48 62 3b b1 d5 09 bd 88 c8 d9 3c f0 10 bc bc
       0.0034528093 -0.033651058 0.026584879 -0.022957295
000270 e7 a8 98 3d e7 0f ef bd 16 a1 50 bc e3 72 4b bd
       0.074540906 -0.11672955 -0.012733718 -0.04967011
000280 2d b8 7f bd 3f fd 5c bb 2c ae 21 3d 4c 51 a2 3d
       -0.062431503 -0.0033720282 0.039472744 0.079256624
000290 52 08 49 bd 3b 9f 95 bc 02 a0 a7 bc 5d a8 19 ba
       -0.0490802 -0.018264404 -0.02046204 -0.0005861575
0002a0 67 eb 14 39 1c 2c ad 3b a5 27 97 bd 0d 23 bc bd
       0.00014202074 0.0052847993 -0.073806085 -0.09186373
0002b0 14 59 cb bc 4c 9b e2 bd 5a a1 bd bc 77 ef f8 bd
       -0.02482275 -0.11064777 -0.023148227 -0.12155049
0002c0 8f 20 88 bd 11 0f 34 3c e8 05 88 3d 45 85 d2 bd
       -0.06646835 0.01098992 0.066417515 -0.102793254
0002d0 87 1e 8b bb 6b 17 9c 3d ef 35 96 3c bb fb 8a 3d
       -0.0042455825 0.07621654 0.018336264 0.06786295
0002e0 5f 07 de 3c 9a af 7b 3c 06 fc 3e bd a3 1e 31 3d
       0.027103124 0.015361691 -0.046627067 0.043242108
0002f0 fd a4 cf 3c 2d 12 bd bd 4e d0 a7 3d 3a ea 01 be
       0.025347227 -0.092319824 0.08194028 -0.12687007
000300 d1 50 db 3c fe f4 b9 bd 77 7f 83 bb aa 5e 2d 3d
       0.026771935 -0.09079932 -0.0040129977 0.042326607
000310 01 46 10 3c 83 ef 3b 3d 5f 17 db 3c 38 86 24 bb
       0.008805753 0.045882713 0.026744543 -0.0025104415
000320 4a 82 9e bd bd 11 45 bd 19 d2 4f bc c9 7f 86 bd
       -0.077396944 -0.04811262 -0.0126843685 -0.06567342
000330 4e 6c b7 bd 92 bd 9d bd e8 1f 83 3d d2 4f 8b bd
       -0.08956204 -0.07702173 0.0640257 -0.06802334
000340 02 ec 64 bd 29 0e 90 3d 8f ac b6 3a ab 25 1e bd
       -0.055889137 0.07033951 0.0013936925 -0.03861014
000350 c5 fb 0f 3d fe ff 15 3c c4 d0 fb 3c 44 17 9a bd
       0.035152216 0.009155272 0.030739196 -0.07523969
000360 f4 c5 ef bd 6f 5b 85 3d d7 61 73 bd 6d 36 bb 3d
       -0.117076784 0.0651158 -0.05941948 0.0914124
000370 36 eb 64 3d 92 5f b7 bd ea 20 ae bd ee db c5 3d
       0.055888377 -0.089537755 -0.085023716 0.09661089
000380 7d a5 ca 3c 82 11 a6 bd a3 2e 67 3d 4c 4e 42 3d
       0.024737114 -0.08108808 0.05644096 0.04743795
000390 d4 2a 76 bd f7 4c cd 3c 09 f9 94 bb 48 3c ad bd
       -0.060099438 0.025061114 -0.004546289 -0.08458763
0003a0 e8 a2 08 3d e3 19 ab 3d b2 c8 c6 bd 03 fa 19 3c
       0.033358485 0.08354547 -0.09706248 0.009397986
0003b0 5a ba 3f bc a3 96 e0 3d 4b b8 85 bc fb 55 6c 3d
       -0.0117021445 0.10966232 -0.01632323 0.057699185
0003c0 43 2a a5 3c 62 5b 42 3d 04 4d 8f 3d f9 b0 99 bd
       0.020161754 0.04745043 0.069971114 -0.07504458
0003d0 b9 93 a5 3d ee bb b1 bd 72 d1 c0 3d b6 77 54 3c
       0.080848165 -0.08678423 0.094149485 0.012967994
0003e0 7e f2 99 3d 80 d2 75 3d 96 c9 80 bd 03 e2 05 bd
       0.07516955 0.0600152 -0.062884495 -0.032686245
0003f0 85 4b 8f 3c 64 f6 b6 bd db d1 df 3d 51 80 b5 bd
       0.017492065 -0.08933714 0.10928699 -0.08862365

2.bias f4 [256]
000000 23 42 8b 3d 4c 3a 3a bd bb 5c 2f bb d5 18 3b bc
       0.06799724 -0.045465752 -0.0026758153 -0.011419495
000010 b5 3d 9c 3c f8 65 21 bd bd 57 fd bb 02 dd 25 b7
       0.019072393 -0.039403886 -0.0077314065 -9.886224e-06
000020 25 1d 68 bc 59 eb 80 3b 99 1b f8 bc 7e f4 ee 3c
       -0.014167105 0.0039343056 -0.030286597 0.029169317
000030 9a 51 d3 bc 55 0c 1d 3d 46 96 a8 bc ff b7 a2 bc
       -0.025795747 0.03834184 -0.020579468 -0.019863127
000040 fc cb 4f 3c 4e 28 06 bd 95 ed 6f bd 9a c7 50 3d
       0.012682911 -0.03275328 -0.058576185 0.050971605
000050 83 fa 03 bd fc 84 59 3d 16 2d 87 3d d1 4e bd 3b
       -0.03222133 0.05310534 0.06600396 0.005777218
000060 1c b7 e3 ba 67 98 2a bb fc d8 ef 3c 03 1c 03 3d
       -0.0017373296 -0.002603078 0.02927827 0.032009136
000070 c5 d1 05 3d 4f aa 22 bc a3 ef f5 bc 0f 58 16 bd
       0.032670755 -0.0099283 -0.030021494 -0.036705073
000080 d3 60 85 3c 21 54 c4 bc bd 8e 49 3d 10 0c 02 bd
       0.016281521 -0.023965897 0.04920839 -0.031749785
000090 87 0f 04 bc 42 53 01 bd ec d6 a5 3c 88 e0 54 3d
       -0.008060343 -0.03157354 0.020244084 0.051971942
0000a0 ce ed d8 3b 42 59 95 bc 0f 67 b3 3c 80 75 92 3d
       0.0066201454 -0.018231038 0.021899728 0.071513176
0000b0 41 4f 08 bd 89 94 6f bc 7d c6 66 bd c4 b7 cd bc
       -0.033278707 -0.014622816 -0.056341637 -0.02511204
0000c0 b4 ab ac 3c cb 02 cd 3c 83 d9 e7 bc d0 1f 4d 3d
       0.021077968 0.025025746 -0.02830196 0.050079167
0000d0 12 d0 22 3d ea 56 06 3d c7 1e 90 3b c8 16 80 3d
       0.039749213 0.03279773 0.0043982 0.06254345
0000e0 77 11 9c 3b e4 e2 04 bd 7b fd e2 3c 4b 60 55 3b
       0.004762824 -0.032442942 0.02770876 0.0032558616
0000f0 22 d6 0c bd 4a 9e e9 3b 82 ab e5 3c 36 f5 c2 bb
       -0.0343839 0.007129465 0.028035883 -0.0059496416
000100 6c 70 e9 3c c8 8f 50 3d 27 80 8b bd ac 52 fe bc
       0.02849599 0.05091837 -0.068115525 -0.03104528
000110 49 db 3f 3d c4 31 c6 3b 41 d8 50 bc ea 9e 61 3c
       0.046839986 0.006048413 -0.012746871 0.013770798
000120 60 f7 4c 3d 45 fb 57 3d fb e6 5c 3d 17 a9 a3 bc
       0.050040603 0.052729864 0.053931218 -0.01997809
000130 f9 f4 1a bd 57 c2 56 bd 35 d4 b1 bc 02 bb f3 bc
       -0.03783128 -0.05243143 -0.021707634 -0.029752258
000140 82 bc 87 3c 16 1a 80 3d 3d 99 04 3d dd 41 7b bd
       0.01656938 0.062549755 0.032372702 -0.06134211
000150 a6 de f5 b8 19 26 46 bd 5e 94 19 3d 07 d0 4a bd
       -0.00011723982 -0.048376177 0.03749501 -0.049514797
000160 47 8c 1b 3d 88 b7 3d bd c6 36 81 bd 99 55 05 3c
       0.037975576 -0.046317607 -0.06309275 0.008138084
000170 ef 41 26 bc 20 aa 46 bd d3 8c 65 bc 39 86 b0 3c
       -0.010147556 -0.048502088 -0.014010626 0.021548377
000180 3e b8 fa 3c e2 75 17 3c 3f 4f dd ba 15 a4 43 bc
       0.030605432 0.009244414 -0.0016884579 -0.011940976
000190 4e 66 ca 3c 6e 5f e3 bc 7b 3d 20 bd 12 46 e3 3c
       0.024706986 -0.027755465 -0.039121132 0.027743373
0001a0 7f 91 70 bb f6 53 88 3c f5 e2 f2 3c 5a 62 1b 3d
       -0.0036707816 0.016641598 0.029649237 0.037935592
0001b0 9a 07 bf 3c 8d c4 07 3d 3d ce ff 3c ae b9 53 38
       0.023319054 0.03314643 0.031226272 5.0479248e-05
0001c0 be 1e 70 bd 31 e9 56 3d 0d 8d bf 3c d8 a6 d1 bb
       -0.058623068 0.052468482 0.023382688 -0.006398063
0001d0 21 65 bc bc b3 87 70 3d 8a 90 40 bd f3 00 34 bd
       -0.02299744 0.058723163 -0.047012843 -0.043946218
0001e0 64 b8 c2 3c ed 44 64 3d b5 d4 61 bc 38 0d 45 3d
       0.023769565 0.055729795 -0.013783623 0.04810831
0001f0 67 b2 1c bd e1 fd c7 b8 0b 5d 07 bd 52 39 cb 3c
       -0.038256075 -9.536348e-05 -0.033047717 0.024807606
000200 d3 90 4e 3d fa 74 86 3c bf 5f 81 3c 2a 65 09 bd
       0.050431084 0.0164132 0.015792726 -0.033543743
000210 0a 93 d9 bc 8a e4 45 bd 3d 22 c6 bc 4d bb 58 3d
       -0.026559372 -0.048313655 -0.024186248 0.052913
000220 c4 95 15 3d dc 2e 8c 3d 3e a1 e6 bc 29 ac 9e 3c
       0.03651978 0.06844875 -0.028153058 0.019369202
000230 5f cb 51 3d 79 1b 96 3d a7 32 1e bd c0 c1 4b 3d
       0.05121934 0.07329459 -0.038622525 0.04974532
000240 7e 68 1d bc 9d 81 9f 3b 8d 77 74 3c df 3d 15 bd
       -0.009607432 0.004867746 0.014921081 -0.036435958
000250 19 a2 29 bd b7 48 63 3d ac e4 2d bc 77 a8 0d 3d
       -0.041414354 0.05548927 -0.010613602 0.03458449
000260 1b 17 13 3d 35 32 65 3d 4b f4 e0 3d 99 ee e7 bc
       0.035910707 0.055956084 0.10984095 -0.028312014
000270 44 1e 16 bd 5d 23 00 bd f0 1d 99 bc 27 27 81 3d
       -0.036649957 -0.031283725 -0.018691033 0.06306296
000280 4e bb f6 bc 9c 78 a6 bc 1f e5 ee 3b b3 6f d6 bc
       -0.03011861 -0.020321183 0.007290497 -0.02617631
000290 06 27 55 bd d3 2c 29 3d 0c 79 11 bd c6 39 22 bd
       -0.05203917 0.041302513 -0.03551583 -0.03960588
0002a0 63 88 b6 3c 47 a2 04 3d 51 e8 e0 3c b8 c1 73 bd
       0.022281831 0.032381322 0.027454527 -0.059510916
0002b0 c1 a0 04 3d e7 68 7b 3d 13 3c 1d 3c 5a b9 a8 bc
       0.03237987 0.06137934 0.009596842 -0.020596195
0002c0 f2 e4 1e 3d 24 b4 d7 3b 5d 2e 5c bd f1 b8 a3 3c
       0.038792558 0.0065827537 -0.053755153 0.019985648
0002d0 4c 02 f0 3c b9 b0 67 bc 2e a8 a7 bc 84 8c 15 bc
       0.02929797 -0.014141255 -0.020465937 -0.00912774
0002e0 79 51 42 bd e9 64 b2 bc 9d 3e 46 bd 34 b5 21 3c
       -0.04744098 -0.021776633 -0.048399556 0.009869862
0002f0 76 63 04 bc a5 08 20 3d cb 5a 4b bc 11 ae db ba
       -0.008080354 0.039070744 -0.012411783 -0.001676025
000300 b9 69 fe 3c fb 8d 5a 3d 8c d3 44 bc e7 9d ba bb
       0.031056272 0.05335806 -0.012013327 -0.005695093
000310 2a da 50 3d a9 f9 96 bc 58 4f f3 3c d4 be c2 3c
       0.050989307 -0.018429594 0.02970092 0.023772635
000320 91 40 4c 3d 6d b6 e4 3c 09 6f 94 bb 39 b4 25 3d
       0.049866263 0.027919019 -0.004529838 0.040455077
000330 fd be 67 3c 26 e4 2b 3d 5b 98 b3 bc 5d 2b 1f 3d
       0.014144656 0.041965626 -0.021923235 0.038859714
000340 e2 8e 0e bd d1 19 64 3b ab 0f 4e 3d 8e ae a8 3c
       -0.034804232 0.0034805427 0.05030791 0.020591047
000350 1a 86 10 3d 89 7a 06 bd 60 99 34 3d 5f 3b 5c bd
       0.03528414 -0.032831702 0.044091582 -0.05376756
000360 7d c5 60 bc 5f 42 36 bd af 23 f1 bc 59 fc 53 3b
       -0.01371896 -0.04449689 -0.02943596 0.0032346456
000370 78 29 58 bc 63 01 47 3d 73 a9 86 bc d1 78 57 bc
       -0.013193481 0.048585307 -0.016438222 -0.0131513635
000380 73 de 58 3d 5e 82 86 3c f9 82 f1 3b e1 ce 5e bb
       0.05294652 0.016419586 0.0073703495 -0.003399782
000390 cd d1 c0 3c 50 66 17 bd 84 ea 6b bc c3 c1 bb bc
       0.02353754 -0.036962807 -0.014399175 -0.022919541
0003a0 5f 76 28 bd 40 8b 68 bd 51 62 40 3b 20 da fc 3c
       -0.041128512 -0.056773424 0.0029355476 0.030865729
0003b0 62 65 48 3d 5a dc 2c bd 30 8e 81 3d 31 07 12 bd
       0.04892481 -0.04220233 0.06325948 -0.03565139
0003c0 d0 fd d6 bb ac 36 85 3c 79 58 0d 3b 26 3a 21 bd
       -0.0065610185 0.016261421 0.0021567626 -0.039362095
0003d0 8f c3 09 3c af 71 d6 3c 7d bd 3a bd 91 c3 6b bd
       0.008408441 0.026177255 -0.045590866 -0.057559554
0003e0 0d a6 33 bd 82 2e 00 3d f0 24 6e 3b 31 56 5f 3a
       -0.04385953 0.031294353 0.0036337934 0.00085196184
0003f0 da 34 5c bc c0 d5 90 bc 6a 4a a0 3b ce fe 6d bc
       -0.013440335 -0.017680049 0.0048916833 -0.014526082

4.weight f4 [256, 256]
000000 6a 88 13 3d 49 f4 11 3d 12 36 03 3d 30 4f 3a bd
       0.036018766 0.03563336 0.032033987 -0.045485675
000010 b7 6f 4e 3d 48 da 15 3d 4f 12 bf bb ec a0 60 bd
       0.05039951 0.036585122 -0.00583104 -0.054840967
000020 1f b4 d5 3c 09 dd c1 3c 8e e4 1d 3c c5 38 ac bb
       0.026086865 0.023664968 0.009637011 -0.005255791
000030 75 df 96 bd 75 13 1f bd 3c fc 58 3c 6f e7 fb 3c
       -0.0736684 -0.038836915 0.013243731 0.030750005
000040 2e a4 80 bc 7d c6 93 bd a2 ac 73 3d 69 16 d8 3a
       -0.015703287 -0.07215593 0.059490807 0.0016486171
000050 48 c8 20 b8 a0 19 b7 bc 19 ff 94 3c fe 4e be bc
       -3.83335e-05 -0.022351086 0.018188046 -0.023231026
000060 e1 5e 9b bc 33 66 e8 bc 31 11 9d bd 99 81 3d 3d
       -0.01896614 -0.028369045 -0.076692946 0.046266172
000070 7e 33 59 bd ed 11 7a bd ef e0 39 bd 49 b7 47 bd
       -0.053027622 -0.06105225 -0.04538053 -0.04875878
000080 42 2b e8 ba e1 11 f2 3c 83 74 ff 3a 74 07 9e 3d
       -0.0017713087 0.029549541 0.0019489679 0.07716265
000090 9f 5c 8b bd b5 29 51 3d 30 60 21 3c d7 7a 29 3d
       -0.068047754 0.051065166 0.009849593 0.041376915
0000a0 0a eb 80 bd 74 3b 06 bc fe 2b 6f bb 9c b9 27 3b
       -0.0629483 -0.008192886 -0.0036494727 0.002559281
0000b0 59 48 c3 3c fe 50 84 bc 8f 61 ce bc 0f 9d 9b bc
       0.023838209 -0.016151901 -0.025193004 -0.01899579
0000c0 a4 f0 ba 3c 82 4f e9 3c 42 88 ac 3b 6a 66 09 3d
       0.022819825 0.028480295 0.0052652666 0.033544935
0000d0 46 35 50 bd a5 2a 7f bd 64 76 e1 bc 61 a3 61 3d
       -0.050832056 -0.06229653 -0.027522273 0.05508745
0000e0 a5 53 8e 3d a3 62 68 3c 6c 1d 80 bd e0 c7 47 bd
       0.06949548 0.014183673 -0.06255612 -0.0487746
0000f0 d3 76 55 bc b3 9a 94 3d c6 9c 7d bb 8a 18 9c bd
       -0.013028818 0.07256069 -0.003869818 -0.07621868
000100 e6 15 92 bd 4e a3 5c 3c 1d 97 eb bc 55 d7 ed bc
       -0.07133083 0.013466669 -0.02875858 -0.029033342
000110 0c 8d 4b 3c cb 06 ef ba 68 1a cc ba 06 41 35 bb
       0.012423765 -0.0018236277 -0.0015571835 -0.0027657165
000120 8d d3 2b 3c 2e 60 b9 bc 32 93 8b 3c ca 00 a9 bd
       0.010487449 -0.02262887 0.017037962 -0.082521036
000130 b2 e9 4a 3d 53 35 84 bd 0f dc 45 bc 5c d5 09 bd
       0.049539275 -0.06455483 -0.012076392 -0.03365074
000140 04 e2 8a bc 41 ff c7 3b 34 9b 29 bc a4 f7 5e bc
       -0.016953476 0.0061034267 -0.010351945 -0.013608847
000150 1b e0 22 3c 01 a3 30 bd a7 5f ee bc e9 89 a4 bd
       0.009941126 -0.043124203 -0.029098345 -0.08034117
000160 5f 2a dd bc 52 66 63 3c 57 32 04 bb af d4 5e 3c
       -0.026997743 0.0138793755 -0.0020171606 0.013600512
000170 04 6f 3b 3c 1b ce 90 bc c2 90 88 3d 3c d1 a2 bc
       0.011440042 -0.017676404 0.06668235 -0.019875161
000180 01 85 e4 3b 27 d3 56 3c 81 47 1a 3d a4 49 8c bd
       0.006973863 0.013111866 0.037665848 -0.06849983
000190 e0 99 24 3d f7 cb b5 bd 78 40 bf bb f4 95 f1 bb
       0.04018581 -0.08876794 -0.0058365427 -0.007372612
0001a0 b3 4f b3 3c 99 c9 24 bd 63 15 d9 3c 85 ee 2a 3c
       0.02188859 -0.04023132 0.026499456 0.010432844
0001b0 22 e8 8f bb 30 8b 4d bc c1 94 40 bd 4f f1 4c bd
       -0.004391686 -0.012545392 -0.047016863 -0.050034817
0001c0 80 b4 28 bb 55 86 51 bb 57 f6 d4 3d 3d 23 59 bd
       -0.0025742352 -0.0031970937 0.10398548 -0.05301212
0001d0 4d 03 aa 3c 01 b4 38 bb 70 09 46 3b 28 f1 8e 3d
       0.020753527 -0.0028183463 0.0030218028 0.06979591
0001e0 59 63 dd bc e0 5d 1e 3b 18 f6 48 3d 66 ab c1 39
       -0.027024912 0.002416484 0.04906282 0.0003693953
0001f0 1a 5f 13 3d 02 f3 29 bb 37 91 6b 3b c3 bc 17 3d
       0.035979368 -0.0025932197 0.003594471 0.03704525
000200 79 e9 be 3c df f6 a1 bc ce 85 02 3d 5e c2 c4 3b
       0.023304688 -0.019771038 0.031865887 0.0060046157
000210 2d 4b 81 bb a2 0e 28 bc 2e 06 3c 3d ca eb f8 bb
       -0.003945729 -0.010257395 0.04590433 -0.0075964676
000220 28 40 20 bc 90 ab 87 b8 f3 7d d4 3c 45 61 81 3c
       -0.009780921 -6.469258e-05 0.025938964 0.015793452
000230 c0 52 3c 3d e7 08 41 3c ca 84 29 3d f9 27 b8 3c
       0.045977354 0.011781908 0.041386403 0.022479998
000240 c2 47 95 bc d0 c6 ec 3c 91 62 69 3c 47 47 2c 3c
       -0.018222693 0.028903395 0.0142446915 0.010515041
000250 23 f3 76 bc a9 25 fa bc db ed 99 3d 9a 56 5f bd
       -0.015072617 -0.030535536 0.075160705 -0.05452595
000260 b9 32 b3 3a 5b d7 7b bc cb 7d 8e bd b9 03 ac bc
       0.0013671733 -0.015371169 -0.06957587 -0.020997869
000270 85 fa 53 bd 77 b2 c1 bc f7 cc 8c 3c 64 c3 96 bc
       -0.051752586 -0.023644669 0.017187579 -0.018403716
000280 27 e4 ac 3c d9 12 a1 bd c5 8c 17 bd 1b 5a 00 bc
       0.021104885 -0.07864923 -0.036999483 -0.007833983
000290 d0 19 74 3c 2f bd 2b bc 6e a6 3e bd 74 a2 81 bd
       0.014898732 -0.010482117 -0.04654544 -0.063298136
0002a0 29 98 9d bc 8c 98 9f bb e0 74 46 bb 47 87 ae 3d
       -0.019237595 -0.00487048 -0.0030282065 0.08521896
0002b0 6d 2f 66 bd 35 75 e5 3c 42 e0 76 bb b6 fe 84 3d
       -0.056197572 0.02800999 -0.003767029 0.06493895
0002c0 5a cb 31 3c b1 da 30 bd 9c 13 ca bb 93 21 a4 3d
       0.010851705 -0.04317731 -0.0061668884 0.08014216
0002d0 0d 2a 42 3d db 4b 00 bd 26 ba be 3c 6d f7 87 bc
       0.047403384 -0.03132234 0.023282122 -0.016597474
0002e0 d4 e4 76 3d 81 fd ba 3c 46 3d 2f bd 9f db d0 bc
       0.06027682 0.022825958 -0.042783044 -0.025495348
0002f0 1b 15 01 3d 92 b7 3a bd a4 f3 82 bc 78 bb 32 bd
       0.03151427 -0.045585223 -0.015985318 -0.043635815
000300 f8 78 d3 bc e4 6d 34 3d 8d 62 59 3d da 66 21 bd
       -0.025814518 0.044050112 0.0530725 -0.039404728
000310 e7 6a fb 3b 5b c1 28 3b c9 26 c4 3c 81 75 0b bc
       0.007672656 0.0025750014 0.023944275 -0.008511902
000320 ff f9 8d b9 67 44 d5 bc cd 80 71 bd 6d e5 38 3d
       -0.00027079877 -0.026033593 -0.058960725 0.045140672
000330 14 36 da 3c 39 b1 dc 3d 9a 2f 39 bc aa 6a 41 bb
       0.026637115 0.1077599 -0.011302853 -0.002951304
000340 06 c4 35 3d 84 bf b1 bd d0 ad 97 bd 5f bb ec bb
       0.044376396 -0.08679107 -0.07406199 -0.007224485
000350 14 44 6f 3d 20 aa 0f 3c a0 05 0c 3d 4e b7 6e bd
       0.058414534 0.008768588 0.034185052 -0.05828028
000360 9c 0d b4 3c 5f cc cf 3c 05 46 9e 3b f0 0c ec bc
       0.021979146 0.025366006 0.0048301243 -0.028814763
000370 ae d6 64 bd b4 55 04 bd fe 3b 7e 3d 39 2f 4f 3d
       -0.055868797 -0.032308295 0.06206893 0.050582144
000380 80 80 7a 3d ed a9 be bc c3 33 67 bc 3a 85 4c bd
       0.061157703 -0.023274386 -0.014111462 -0.049931742
000390 a1 b0 27 bc 72 bc 76 3d eb 96 a8 3b c4 7a ff bc
       -0.010234983 0.06023831 0.005144944 -0.031186469
0003a0 b5 ce 09 bd 4a 30 d4 bb 7e 2e 2c 3d 1c 9e 8e bc
       -0.033644397 -0.006475483 0.042036526 -0.017409377
0003b0 bd 25 a0 bc 6c 37 df 3d 07 80 00 3d 82 35 8c bd
       -0.019549245 0.10899243 0.031372096 -0.06846143
0003c0 17 bf 08 bd de a3 bd 3c 9a b6 0b 3d 2e f0 36 bd
       -0.033385362 0.023149427 0.03410969 -0.044662647
0003d0 d6 16 d0 3a fd 96 af 3c d0 09 41 bd 55 5d 1b 3d
       0.0015875946 0.021434302 -0.0471285 0.037930805
0003e0 e1 ff b9 bc 5b 55 99 3c fd bb e8 3c ba a8 27 b9
       -0.02270502 0.018717458 0.028409952 -0.00015989217
0003f0 8b 1c 90 bc 09 48 83 3d 45 13 63 bc ad 1e 21 3d
       -0.017591735 0.06410224 -0.013859575 0.039335895

4.bias f4 [256]
000000 cc 8f 33 3d d0 eb 2b 3d 59 87 c2 bc 38 cf e9 bc
       0.043838307 0.041972935 -0.02374618 -0.028541192
000010 dc ed 72 3c 7a 07 82 bb f2 8e 87 3b f8 9a be bc
       0.014827218 -0.0039681764 0.0041369135 -0.023267254
000020 f4 ce 1f bd 0e e1 09 3d f0 fb 1f 3e 73 e4 31 bd
       -0.039015725 0.033661895 0.1562345 -0.043430757
000030 5d 79 67 3d cd 0a ea bb 7a 51 c7 bb 56 67 56 be
       0.056512225 -0.007142401 -0.006082711 -0.20937857
000040 6c 9a ba 3d 4d 2d 3c 3d 88 ed 14 bd fa 3e ca 3d
       0.09111485 0.04594164 -0.03635934 0.09875293
000050 18 0d e9 bc ef c9 1c bb 91 a6 9d bb d7 45 54 be
       -0.028448626 -0.0023924073 -0.004811116 -0.20729767
000060 db 72 24 3c 7b b8 0f 3c 57 9e 23 3d 0c 3e 76 3d
       0.010037149 0.008772011 0.039945927 0.060117766
000070 99 56 79 bc 9d ed 85 bd 26 b5 52 3c 1f 69 d5 bd
       -0.0152184 -0.06539462 0.012860572 -0.10420441
000080 61 c6 b5 bd 79 f8 0b 3d d4 84 84 bc 20 41 cb bc
       -0.088757284 0.03417251 -0.016176619 -0.024811327
000090 29 61 36 bd 36 5c 4e bd 23 a6 27 3e d9 18 0a 3d
       -0.044526253 -0.050380908 0.1637197 0.033715103
0000a0 3a 09 bb 3c 14 5f d7 3d f5 44 02 3d 66 03 40 3c
       0.022831548 0.105161816 0.031804044 0.01171956
0000b0 c3 d3 72 3d 61 a1 29 3d f8 aa 68 bd e2 8a 02 bc
       0.059283983 0.04141367 -0.056803674 -0.007967683
0000c0 5c 50 c1 bc d1 5d be 3c 49 1f 37 bd ea 0d 0f 3d
       -0.023597889 0.023238095 -0.04470757 0.03492538
0000d0 f7 a9 1e 3d b0 c1 82 bd 58 02 61 bd 5f 2c 75 bd
       0.03873631 -0.06384599 -0.054933876 -0.05985677
0000e0 6d 4c e6 3c a7 ce 0c be a3 e5 dc bc 77 95 0c 3b
       0.028112615 -0.13750707 -0.026964968 0.0021451393
0000f0 b9 5a 4e bd d2 bc 44 3d 81 49 27 bd 02 92 97 bc
       -0.05037949 0.048031636 -0.040841583 -0.01850224
000100 43 42 23 bd 97 94 8b 3c 9d 56 05 bc 22 02 82 bb
       -0.039858114 0.017038627 -0.008138326 -0.0039675394
000110 95 d6 2c bc e4 0f 14 bd ca 72 0e bc e0 dc 3b 3d
       -0.010549207 -0.036147967 -0.00869436 0.04586494
000120 c3 03 d1 3b 56 6b 66 bc b4 84 e4 3d 35 e1 8e 3c
       0.0063786223 -0.014063677 0.111581236 0.017441371
000130 6b 51 d9 3c d0 7f c1 bd ac 1f f0 3c e2 08 b3 3b
       0.02652808 -0.094482064 0.029311977 0.0054637054
000140 6c b5 6c bd 42 76 80 3d c3 a1 91 3d f0 62 ac 3c
       -0.057790205 0.06272556 0.07110932 0.02104327
000150 df a2 dd 3d 72 85 64 3c 04 d5 2f bc 42 67 d8 3c
       0.10822081 0.0139478315 -0.010731939 0.026416425
000160 03 72 77 bd f0 33 2d bd 8a 9b 50 bd d0 fa 85 bd
       -0.060411464 -0.04228586 -0.050929584 -0.06541979
000170 a7 fc 29 bd b4 62 8e 3c d2 f1 a6 bd 8d 26 39 bb
       -0.041500714 0.01738105 -0.08151592 -0.0028251738
000180 d8 ad e9 3b 82 5d 2a be d3 ac 40 bb 11 1a 3f 3c
       0.0071313195 -0.16637233 -0.0029399886 0.01166393
000190 f0 bc 19 3c 09 38 76 3d 36 07 52 bb b8 69 28 3d
       0.009383425 0.060112033 -0.0032047755 0.041116446
0001a0 d0 3a e2 3c a8 a8 18 bd 98 ee 30 3d 33 61 6e 3c
       0.027615935 -0.037270218 0.04319629 0.014549541
0001b0 14 92 35 bd 62 c7 ab 3b 31 43 74 3c 65 29 40 3d
       -0.044328764 0.005242274 0.014908598 0.046914477
0001c0 ec 35 87 bd 0f 7b b4 3c e3 f0 84 bc 4a 6d 56 3b
       -0.06602082 0.022031335 -0.016228145 0.003271895
0001d0 ad 02 a3 3d 94 ce 9f 3c 4f c9 9c bd d5 0a da 3c
       0.07959495 0.019507684 -0.07655584 0.026616493
0001e0 f1 5e 8a bd 90 02 80 bd 2d 8c 95 3c c7 10 bc 3c
       -0.0675639 -0.06250489 0.018255318 0.022957219
0001f0 0f b8 2f bc 81 ac 6d bd 34 83 ae bd f8 39 0d 3d
       -0.010725035 -0.05802584 -0.08521119 0.03447911
000200 ef 09 fe 3c 3e cf eb 3c 6a 99 95 bd 27 bc a7 3d
       0.031010596 0.028785344 -0.07304652 0.08190184
000210 9c 6a 2b 3d 70 99 9a 3c 44 39 32 bc 11 52 8c bc
       0.041849717 0.018871993 -0.010877911 -0.017128976
000220 ed fc 82 bd 37 50 3e 3d 06 f9 4a 3c 98 7f 5c bc
       -0.06395898 0.046463218 0.012388473 -0.013458155
000230 2d a0 3f 3a 63 ff 02 3e 23 d1 5a bd 2e 5a 51 3b
       0.000730994 0.12792735 -0.053422105 0.003194462
000240 9a e7 98 bc 25 43 06 bc f0 8f ab 3c 8e f3 9c 3d
       -0.018665124 -0.008194719 0.020942658 0.07663642
000250 c3 5b 4f 3d 15 82 26 bd f0 da 45 bd 3d 02 fd 3b
       0.05062462 -0.0406514 -0.0483045 0.007721214
000260 ad 95 3c bd 0d 42 cb 3d 21 2a 67 3d 20 e4 00 3d
       -0.04604118 0.099247076 0.05643666 0.031467557
000270 f2 78 91 3d 1f a3 af bc 43 f6 ef bd f6 46 ed 3c
       0.071031466 -0.021440087 -0.117168926 0.0289645
000280 66 7f d3 3c d4 00 56 3d e4 5d 6c bd 2b b5 0a bd
       0.025817584 0.052246884 -0.05770673 -0.03386418
000290 9c 5f 85 bc 5b 23 e3 3d b8 5f f7 3c 9b e5 22 bd
       -0.016280942 0.11090728 0.03019701 -0.03976975
0002a0 06 08 5c 3c 3d db 38 bc 60 c8 9d 3d d0 fc 2d bd
       0.013429647 -0.011282739 0.07704234 -0.04247743
0002b0 68 47 66 3c d9 98 50 bc d7 67 27 bc a6 10 36 3c
       0.0140551105 -0.012731754 -0.010217628 0.011112368
0002c0 76 b4 77 3d aa 80 b5 bc 56 7f 47 bd 13 29 a5 bb
       0.060474835 -0.022156078 -0.04870542 -0.005040297
0002d0 63 2d 87 bd bb cd 0a bd a2 84 40 3d 97 a8 96 bd
       -0.06600454 -0.033887606 0.04700149 -0.07356375
0002e0 d9 9b e1 bc c2 4d 03 bd b3 bc cc bd 04 df 8c 3d
       -0.027540134 -0.032056578 -0.09996929 0.06878474
0002f0 46 73 07 3c 6d cc 07 bd 27 48 a6 bb ce 0e b0 bc
       0.008267229 -0.03315394 -0.005074519 -0.021491434
000300 f7 ec 7a 3d c5 43 4a bd 5d f5 7e 3d 23 16 b5 3b
       0.061261144 -0.049381036 0.062245715 0.0055263205
000310 ae 87 af bd d3 5d 67 3d 92 36 70 bc f9 15 33 bc
       -0.08570801 0.056485962 -0.014661448 -0.010930532
000320 13 60 1f 3c 95 41 67 bd bb 31 0f 3c 22 54 3d bd
       0.009727496 -0.05645903 0.008739884 -0.046222813
000330 87 2d 17 bd 72 f7 10 3c 28 8d 64 bd 5b fd c0 bd
       -0.036908653 0.008848058 -0.05579868 -0.09423324
000340 ab d5 06 bc 7d 53 f5 bd 40 86 4d bc d3 10 ba 3d
       -0.008229653 -0.11978815 -0.012544215 0.0908524
000350 d2 12 0d 3d f0 d6 93 ba 66 56 b4 bd cb 1d 19 3e
       0.034441777 -0.0011279266 -0.08805542 0.14952771
000360 09 1f 87 bd e3 e2 f6 39 1e 90 e6 3c cf 07 86 bc
       -0.06597716 0.0004708982 0.028144892 -0.016361145
000370 37 7f de 3c 69 41 62 bc fc 58 b8 bd 94 eb b8 3d
       0.02716027 -0.01380954 -0.090013474 0.09029308
000380 1b 1f 1d 3e a1 3a 08 be 2d 1e 03 3e 0b 4f cd bc
       0.15343897 -0.13303615 0.1280448 -0.025062105
000390 1e 19 0a bd 31 8c 4b 3d d2 93 16 3d 79 5e fb 3c
       -0.03371536 0.049694244 0.036762066 0.030684697
0003a0 f5 8f 89 3c e3 8c 93 3b 6b ce c0 bc 43 5c 18 3e
       0.016792277 0.004502879 -0.023535928 0.14878945
0003b0 47 bc e7 bc 91 7f 53 3d f6 e5 c3 3a 93 e7 06 bd
       -0.02828802 0.05163533 0.0014945853 -0.03293569
0003c0 bd 8f a0 bc 45 68 2f bd 30 b8 a1 3c 95 a2 35 bc
       -0.01959979 -0.04282405 0.019741148 -0.011086126
0003d0 3f 44 93 bd 0d 0b 57 3c e9 6b 1f be 89 2e 49 bd
       -0.07190751 0.013125193 -0.15568508 -0.049116645
0003e0 eb d0 01 3e c3 b7 0e 3b 6b 35 16 bc 3f a9 2f 3e
       0.12677352 0.002177701 -0.009168009 0.17154406
0003f0 cb 0e 92 3c 6a 67 b9 3b 1f 66 12 3c c5 20 22 bc
       0.01782932 0.00565808 0.00893548 -0.009895508

6.weight f4 [256, 256]
000000 43 2a ff 3c 15 e0 3b 3d 75 19 cc bd 35 f8 ba 3d
       0.031148082 0.045868 -0.09965793 0.09129373
000010 a5 ba ac 3d 9b 98 19 3d 35 34 fe 3c 72 a5 94 3b
       0.08434037 0.03749905 0.031030754 0.004536324
000020 d7 c3 9c 3d f9 80 a3 bc b4 85 1e 3d 28 60 f5 3c
       0.07654541 -0.01995896 0.038701728 0.029953077
000030 45 66 d6 bd 41 35 bc bc 0b d6 a8 bd 61 3b 0f 3c
       -0.10468725 -0.022974612 -0.082439505 0.008742184
000040 a1 3a 20 bd 34 fa c1 3c 04 92 0f bd 96 7f 87 3c
       -0.039118413 0.023678876 -0.03505136 0.01654033
000050 ca 1b 2f bd 8e 05 d5 bc 7f 6f df 3b e0 45 b0 3d
       -0.04275111 -0.026003625 0.0068187113 0.086070776
000060 78 28 e1 3c 12 27 87 3c 74 c1 b5 3c 21 fd 55 3c
       0.027485117 0.016498122 0.022186972 0.013060839
000070 4a 0d 0f 3c f5 13 d0 bc 96 fc 21 bd 9e 97 92 3d
       0.008731196 -0.025400141 -0.039547525 0.07157825
000080 f4 60 88 3d 27 ff a1 bd e1 ba f8 bc 32 70 81 bc
       0.06659117 -0.079099946 -0.030362548 -0.01580057
000090 8f 61 59 3d df f3 58 bb 63 32 a8 3d e7 b0 9c bc
       0.053071555 -0.0033104343 0.082127355 -0.019127322
0000a0 65 4c 48 bc c1 02 0a 3c 8e 08 9f 3c 12 af 83 3d
       -0.012225245 0.008423508 0.019413259 0.064298764
0000b0 ea 34 67 bb ac 49 e7 bc 3a 3a 93 bd 18 13 82 bd
       -0.0035279342 -0.028233372 -0.0718884 -0.06351298
0000c0 1c 34 93 bc 98 4d 13 3d c5 86 61 3b cc fc d4 3b
       -0.017969184 0.03596267 0.0034412604 0.0064998623
0000d0 3f 27 85 bc 8f 11 8f bd 4d dc 81 bd 8e a8 57 3d
       -0.016254066 -0.06985771 -0.06340847 0.05265098
0000e0 22 2e f9 bc 63 7c 01 bd 60 e3 6b bc 4d 1c 2a 3b
       -0.030417506 -0.031612765 -0.014397472 0.002595681
0000f0 60 fd b5 bc a9 ea df 3d cd 28 18 bd 83 aa a8 3c
       -0.022215545 0.1093343 -0.037148286 0.020589119
000100 e3 d1 2d bc 23 38 4f 3d 3a 67 5f 3c 5a d4 f4 3b
       -0.010609123 0.050590646 0.013635451 0.0074716033
000110 81 90 19 3d 80 68 a7 bc 49 54 cc bd 69 21 05 bc
       0.037491325 -0.020435572 -0.099770136 -0.008125641
000120 90 42 b0 3d 9a da fc 3c 38 ce 9e 3d 0d 4a 9e bc
       0.08606446 0.030865956 0.07754177 -0.01932242
000130 fd 02 18 3c bc 02 a8 3c a5 74 82 bd 81 fe b8 bd
       0.009278056 0.020509116 -0.063699044 -0.09032918
000140 d2 7c fe bb 72 04 af bd 8a f5 37 bd 35 19 5f 3d
       -0.0077663446 -0.0854577 -0.0449119 0.0544674
000150 10 56 bf bc 3c a2 99 bd c2 29 ec bd f3 2a 95 3c
       -0.023356467 -0.07501647 -0.11531402 0.018208956
000160 19 8a 7c bb 34 a9 aa bc 37 47 5e bd 37 cc 07 3d
       -0.003853446 -0.020832635 -0.054267135 0.03315374
000170 0e d3 de 3c 42 d0 d4 3b a8 b8 80 bd f2 19 62 3b
       0.027200248 0.006494553 -0.062852204 0.0034500328
000180 1a d9 58 3d b5 ca 23 3c 5b 77 ad bc e0 c9 03 3e
       0.05294142 0.00999706 -0.021175077 0.12869978
000190 94 31 be bd 10 8c 79 bd aa 66 a3 3d 60 3e 92 3c
       -0.092868 -0.06092459 0.07978566 0.017852008
0001a0 5a 80 b8 3c e4 ee 62 3d 9d bf 72 bd 02 47 a1 3d
       0.02252214 0.055403605 -0.059264768 0.07874872
0001b0 43 ee af bc 70 2b f7 3c 4a d1 07 bc 1e e5 ea bc
       -0.021475917 0.03017208 -0.0082896445 -0.028673705
0001c0 c4 6b 1c bc ec ee bc bc ff 13 87 bd 12 06 cf bc
       -0.009547178 -0.023063146 -0.06595611 -0.02527145
0001d0 6a 5e 1b 3c 3a 3a 0e bd 9c 0f 8d 3d e7 5c 89 3d
       0.009482959 -0.034723498 0.06887743 0.06707173
0001e0 be d0 b7 bb f9 22 80 bc b4 f0 20 3d d5 41 02 bd
       -0.005609601 -0.015641676 0.039292052 -0.031801064
0001f0 d4 5c c8 bc a8 2a 4c 3d 68 40 52 bc bf 0c 6a bd
       -0.024458326 0.049845368 -0.012832738 -0.057141062
000200 c9 fd 19 3d 43 66 c3 3b 03 68 45 bd 42 44 6e 3d
       0.037595544 0.0059631183 -0.048194896 0.058170564
000210 c4 4f 4d bc 77 6a 7d 3b b9 2b b3 bb 28 0b 11 3d
       -0.012531225 0.0038668194 -0.0054678586 0.03541103
000220 1b 12 d4 3b f6 ed 88 3d 4b 24 0e bd af 50 25 bd
       0.006471885 0.066860124 -0.03470258 -0.04036015
000230 d2 58 90 bd a4 8f 00 bd 00 0a fd bc b2 61 10 3d
       -0.07048191 -0.031386986 -0.030888557 0.03524942
000240 09 06 0a bd 65 3d 44 3b 0b bf 04 bd 97 75 1c 3d
       -0.03369716 0.002994382 -0.032408755 0.03819808
000250 f4 3a 33 bd d8 75 a5 3d 86 36 8a 3c a7 54 66 3c
       -0.043757394 0.080791175 0.016871702 0.014058269
000260 d5 b9 e9 3c 0a 19 c1 3c 9d af d0 bb d3 95 cc 3d
       0.028530994 0.02357151 -0.006368591 0.09989514
000270 f5 ef 20 3d 2b f2 d0 3c 39 79 40 3d 4d 64 d7 3c
       0.03929134 0.0255061 0.046990607 0.026292944
000280 ba 52 d6 3b bd b7 48 bd 40 54 1c 3c e8 b8 05 3d
       0.0065406235 -0.04900335 0.009541571 0.032647043
000290 2c 1c 9d bd 4d 71 8a bd 1c ca f1 3a 3e 77 42 3c
       -0.07671389 -0.06759892 0.0018447074 0.01186925
0002a0 86 61 63 3d 37 11 84 3c e9 65 35 3c e6 fd 13 3d
       0.055512927 0.01612149 0.011071661 0.03613081
0002b0 8f c9 70 3c c3 7f fd bb 67 e5 a8 bd d2 51 3f bd
       0.014696493 -0.0077361776 -0.0824688 -0.04670889
0002c0 cc 0b 80 bc a0 4a 29 3d de d1 15 bb 02 45 ec bd
       -0.015630625 0.041330934 -0.0022860686 -0.115366
0002d0 0b ef 75 3d 21 ad 3c 3c 50 16 bf bc 1e 56 b2 bc
       0.060042422 0.0115158865 -0.02332607 -0.02176958
0002e0 53 75 f7 3c 69 9e 39 3d 2d f4 18 bd 69 e4 31 bb
       0.030207312 0.045317087 -0.03734224 -0.00271442
0002f0 54 0d 88 bd 63 60 bf 3d 47 e8 16 bc f3 88 a1 bd
       -0.06643167 0.09344556 -0.009210653 -0.07887449
000300 7e 67 ea bc 5a ad 8a bd ba f3 2f 3d fc 0a 29 bd
       -0.028613802 -0.067713454 0.042957045 -0.04127024
000310 1b 91 02 bd 0d 6d 85 bd f4 fb 16 bd 3e de 35 bd
       -0.031876665 -0.065149404 -0.036861375 -0.0444014
000320 58 b9 ae 3c bd b8 69 3d d7 15 83 3d 54 53 2c bc
       0.021328613 0.057060946 0.0640065 -0.010517914
000330 6d 06 32 3c d7 5f 0b bd 4a 7b c8 bc 38 c9 ed bc
       0.01086579 -0.034026947 -0.024472851 -0.029026613
000340 7f 63 52 3d 9c 5e 29 3d 90 8a b6 bc 39 c8 39 bd
       0.051364418 0.041349992 -0.022282869 -0.045356963
000350 38 46 6d 3c 83 e5 9d bb 7d 2b 22 3c a4 e5 03 bd
       0.0144820735 -0.0048186197 0.009898064 -0.032201424
000360 be f2 3a 3c 60 48 ee bc fb d6 0a 3d e7 ea 90 3c
       0.011410413 -0.029087245 0.033896428 0.017690135
000370 cd d0 2f bc ed 41 bd bb 20 c2 f8 3b 4a d7 81 3c
       -0.010730934 -0.005775681 0.007591501 0.015849728
000380 3d 2b 6b bc a8 24 25 bc 4d 36 32 3d 79 fa 36 bd
       -0.0143535705 -0.01007954 0.043508817 -0.044672463
000390 c6 74 44 bc b1 6e b0 3c 5f 76 91 bb 55 47 dd 3c
       -0.011990732 0.021537157 -0.0044391598 0.027011553
0003a0 b2 12 de bc ca d4 97 3c ae 34 f9 bc 3d 68 13 bd
       -0.027108524 0.018534083 -0.030420627 -0.03598808
0003b0 74 05 98 3b fc 8c 87 bd 93 2f e1 3c e9 05 64 bd
       0.004639322 -0.066186875 0.027488505 -0.0556697
0003c0 f1 7a 0f bd 96 af 90 3c 21 44 be 3b 1a 3e e3 bc
       -0.035029355 0.01766185 0.0058064614 -0.027739573
0003d0 97 85 d2 bc 99 3b 40 3c 7e 1d 9f 3c 5b a0 8d bd
       -0.025698466 0.011732959 0.019423243 -0.06915351
0003e0 cd aa 42 3d b1 fe 51 3c a0 70 7d bd fb e1 f6 bc
       0.04752617 0.012817071 -0.061874986 -0.030137053
0003f0 c2 ee c5 bb 27 fb 36 bd 67 9c 6b bd bb b3 ef ba
       -0.006040425 -0.04467311 -0.057522204 -0.0018287817
